weight/Epoch99.pth (torch, 52303 bytes, 28 tensors)

e_conv1.depth_conv.weight f4 [3, 1, 3, 3]
000000 66 2c cb be f1 74 77 be 5d e1 88 be 76 9d 08 be
       -0.3968231 -0.24165703 -0.2673444 -0.13341317
000010 83 fe 0c bd a8 f1 99 bd 11 ed 99 be 58 53 cb 3d
       -0.03442241 -0.075167954 -0.3006368 0.09928006
000020 e7 3a 8c bb 92 17 cc bd b8 f8 76 be ed 4d cf bd
       -0.0042794826 -0.09965433 -0.24118316 -0.10122285
000030 9b 23 84 be 51 01 e9 3d f7 26 1e be cc 36 4f be
       -0.25808415 0.11377204 -0.15444551 -0.20235747
000040 c9 15 ec be 36 4e 30 be b5 13 e1 bc 72 d5 d0 bc
       -0.4611037 -0.17217335 -0.027475217 -0.025492404
000050 d4 0a 43 be 5e eb 9f 3e f8 97 9b 3e ca 91 d1 bd
       -0.190471 0.31234258 0.3038938 -0.10232885
000060 93 99 a2 be d3 0c d5 3d 3c 06 c0 be
       -0.31757793 0.10402837 -0.37504756

e_conv1.depth_conv.bias f4 [3]
000000 8f 10 a7 be fe bc 5e be 46 80 13 be
       -0.3262982 -0.21751782 -0.14404401

e_conv1.point_conv.weight f4 [32, 3, 1, 1]
000000 8d bc 15 b8 b7 63 6f ba a9 e6 a6 3a 3a ae 87 be
       -3.569997e-05 -0.0009131985 0.0012733537 -0.26500112
000010 f1 9d 58 bc 80 60 38 3d d2 8d 00 39 83 2b b4 38
       -0.01322125 0.045013905 0.00012259863 8.5911735e-05
000020 f4 92 35 38 f7 cd 2d 35 f4 db 27 35 64 e2 91 34
       4.3290624e-05 6.474724e-07 6.253242e-07 2.7173076e-07
000030 e0 36 00 80 4e 30 00 80 b2 33 01 80 f4 3d 1d 3a
       -1.9685e-41 -1.7328e-41 -1.1038e-40 0.00059983064
000040 54 1e 19 3a 9b e2 8a 36 77 53 eb be 5a e9 0f bf
       0.0005841006 4.139101e-06 -0.45962116 -0.5621544
000050 b5 dd a6 be 31 37 2f 04 9b 78 27 04 c9 e6 26 80
       -0.32591024 2.0596494e-36 1.9686135e-36 -3.572539e-39
000060 d7 94 92 2d b7 2b 42 2d b0 5f b1 2c 0a f7 13 3d
       1.6664376e-11 1.103733e-11 5.041266e-12 0.036124267
000070 4c f8 98 3d 8f b2 b9 be a2 d9 39 3e 63 a1 ba bd
       0.07469234 -0.36269042 0.18149427 -0.09112813
000080 d4 c1 dd 3e 0e 99 b9 3c 24 48 35 3d b3 b3 cd bd
       0.43311942 0.02265599 0.04425825 -0.100440405
000090 7b 84 22 3d 21 38 2d bc 2f 9c ea bc bd 22 d6 3e
       0.039677124 -0.010572464 -0.028638927 0.41823378
0000a0 b9 57 0b 3e a1 a5 d9 3d 41 0a ea bb 76 ac 91 3a
       0.13607682 0.10627294 -0.0071423356 0.001111402
0000b0 22 df 35 b9 ba 5a 09 be 90 42 a6 be f0 39 88 be
       -0.00017344629 -0.13413516 -0.32472658 -0.26606703
0000c0 49 18 da 36 07 01 48 36 ed d7 85 2b b8 69 14 34
       6.4997334e-06 2.980292e-06 9.51015e-13 1.3822034e-07
0000d0 0b 85 2a 34 d4 ae af ab 4a 2a 48 17 a2 55 49 17
       1.5880885e-07 -1.2483022e-12 6.467686e-25 6.5054687e-25
0000e0 7c b5 f9 16 61 58 af 0f f8 15 c8 0d 56 bb 00 00
       4.0342652e-25 1.7290375e-29 1.233124e-30 6.7203e-41
0000f0 26 eb 4f 3d 00 5c 98 3d 74 6f 57 ba b2 08 da bc
       0.050761364 0.074394226 -0.0008218207 -0.026615474
000100 d0 8f c0 bd 4b 9d d3 bc 79 aa 93 be 66 87 84 bd
       -0.0940243 -0.02583184 -0.28840998 -0.06471138
000110 20 42 b2 3d ec 4f ee 0a 24 7d 08 0b 29 10 71 8a
       0.087040186 2.294863e-32 2.6286793e-32 -1.1606767e-32
000120 7d 5d c0 3e 00 34 e1 be f0 1b 27 bd f4 69 10 be
       0.37571326 -0.43984985 -0.040798128 -0.14102918
000130 a2 80 83 be 1f 1a e8 3b 5e b0 b5 be 17 43 2a be
       -0.25684077 0.007083192 -0.3548612 -0.16627155
000140 22 3e 1a 3d 8b ae 6d be 3d fb b7 3e 34 e4 14 3e
       0.03765691 -0.23211114 0.35933867 0.14540178
000150 a9 bc 85 3d b7 af d6 be 07 9b c6 be 94 f1 54 be
       0.06530125 -0.41930935 -0.3879015 -0.2079528
000160 2a a3 61 3e d4 03 03 3e 01 77 ce bc 24 8a 41 bd
       0.22034898 0.12794429 -0.02520323 -0.04725088
000170 df a2 2b 3c ea bf 30 ae 7e c4 e2 2c 15 12 2e 0e
       0.010475843 -4.018822e-11 6.4451213e-12 2.1455862e-30

e_conv1.point_conv.bias f4 [32]
000000 80 a4 92 39 19 c4 d5 3e 3d 5a 87 38 7c ef 45 35
       0.00027969852 0.41751173 6.45411e-05 7.3736715e-07
000010 6a 89 00 80 5d cd cc b9 67 69 b6 be 21 3e 1a 86
       -4.9295e-41 -0.0003906292 -0.3562729 -2.9009826e-35
000020 2c fe 04 ae c0 ce 61 3e 32 e7 6d 3e 2c 15 fc 3c
       -3.0239075e-11 0.22051525 0.23232725 0.030771814
000030 fa f7 c7 3c f6 d7 ea 3e e8 78 ce bb bc e3 cd 3e
       0.024410237 0.4586789 -0.0063010342 0.4021281
000040 b1 43 20 b8 3b 81 cc b5 3d 6c 81 97 96 b3 9b 09
       -3.8210015e-05 -1.5236795e-06 -8.363753e-25 3.7483774e-33
000050 b6 2b 50 3d a2 71 36 bd b4 47 45 bc 59 81 93 89
       0.050822936 -0.044541962 -0.012041021 -3.55106e-33
000060 72 8b 55 3e fd 6e 39 3e ad 89 35 3e c9 72 c2 3e
       0.20853975 0.18108745 0.177283 0.379782
000070 99 44 91 bc 8b 08 86 3e e1 3f e6 bc 54 87 b9 b1
       -0.017732905 0.26178393 -0.028106632 -5.3995937e-09

e_conv2.depth_conv.weight f4 [32, 1, 3, 3]
000000 15 11 2e ba 28 9b 1a b9 3b 27 34 b9 a2 48 a9 b9
       -0.00066401187 -0.00014744385 -0.00017180752 -0.00032288308
000010 1b 01 0b 39 d6 bb 0d 39 ca 92 14 ba 24 10 ab b8
       0.00013256485 0.00013516782 -0.0005667625 -8.156922e-05
000020 b4 04 dd b8 4e 20 22 be 37 0e 0f be df bd 3a be
       -0.00010538977 -0.15832636 -0.13970266 -0.18236493
000030 8c cb 03 bd ec d6 2f be a4 ec 21 be 14 dd ae bd
       -0.03217654 -0.1717183 -0.15812927 -0.08538261
000040 2b 60 c9 bd 0d 29 87 be ef 5e d1 31 97 b3 c9 31
       -0.09832796 -0.26398507 6.0934933e-09 5.870287e-09
000050 98 8f d0 31 ac 6f d3 31 6f cf cc 31 b4 0e d4 31
       6.0699215e-09 6.153604e-09 5.960764e-09 6.1716836e-09
000060 51 0a de 31 d9 e8 d7 31 3d 6b df 31 b1 7a ca 32
       6.462223e-09 6.2837953e-09 6.5023458e-09 2.3571689e-08
000070 0b 3b 0e 33 22 0b 78 33 23 10 74 32 c5 10 01 33
       3.311565e-08 5.7752125e-08 1.4206338e-08 3.0050405e-08
000080 fc 8f 73 33 b2 9e 07 33 48 40 40 33 f7 08 8e 33
       5.67088e-08 3.157647e-08 4.4761947e-08 6.614021e-08
000090 bc 53 01 00 c1 28 02 00 1c 9f 00 80 88 2a 02 00
       1.21874e-40 1.98291e-40 -5.7078e-41 1.98928e-40
0000a0 af a0 01 00 ad 17 02 00 10 38 01 80 90 2c 01 00
       1.49478e-40 1.92164e-40 -1.11947e-40 1.07822e-40
0000b0 d2 7e 01 80 71 45 11 31 57 46 13 31 88 20 e3 30
       -1.3733e-40 2.113975e-09 2.14313e-09 1.652567e-09
0000c0 b7 1c 05 31 fa a2 0a 31 82 d3 d6 30 f1 82 d9 30
       1.937037e-09 2.0174284e-09 1.5630663e-09 1.5826044e-09
0000d0 ef fc eb 30 9b 5c b0 30 01 b9 b8 be be 6c f8 bc
       1.7170388e-09 1.2832005e-09 -0.36078647 -0.03032529
0000e0 f3 07 de be f0 da 7d be ed 61 d2 bd fb ca 10 be
       -0.4336544 -0.2479055 -0.10272584 -0.14139931
0000f0 85 59 b9 be 30 13 37 be 34 bb 64 be e1 38 ad 82
       -0.3620111 -0.17878413 -0.22337037 -2.5452712e-37
000100 64 a4 a3 82 a6 8d ab 82 39 bd c9 82 b3 d5 c4 82
       -2.4045053e-37 -2.5207494e-37 -2.9642904e-37 -2.892227e-37
000110 5f 25 d0 82 1f 6a e4 82 ba 0e e3 82 2f 91 f1 82
       -3.0584303e-37 -3.35625e-37 -3.3363105e-37 -3.5495099e-37
000120 5f 4d d7 2b 77 bf be 2b 4d 7e c8 2b 0b 97 c8 2b
       1.5298144e-12 1.3553454e-12 1.424591e-12 1.4252778e-12
000130 ea ff af 2b 5b b4 b8 2b 80 e1 ce 2b 28 2b b7 2b
       1.2505528e-12 1.3124045e-12 1.4699769e-12 1.301491e-12
000140 48 d2 c0 2b e3 98 78 be 23 37 15 be a0 d1 5f be
       1.3700785e-12 -0.24277072 -0.14571814 -0.2185731
000150 d5 2a 1c bd 0a 54 0b 3b fb fa cb bd 03 d3 a6 bc
       -0.038126785 0.0021259808 -0.0995998 -0.02036429
000160 50 d7 0f bd 3e 0c 1b bd c5 bb ee bd 4a 37 82 be
       -0.035117447 -0.037853472 -0.11656908 -0.25432807
000170 29 e0 2a be c9 77 99 bd 78 f7 3b be a1 9a ee bd
       -0.16687073 -0.0749355 -0.1835612 -0.11650587
000180 6b 35 17 3d 9a 66 63 3d d8 93 8a be 22 34 dd b6
       0.036916178 0.05551777 -0.2706592 -6.5923823e-06
000190 06 d6 fd b5 4c f2 13 b5 3f 6a 60 b6 3a f1 43 34
       -1.8912258e-06 -5.5114356e-07 -3.3440444e-06 1.8248548e-07
0001a0 83 d8 95 35 97 69 4c b6 cc 59 4d b4 85 23 65 35
       1.1164378e-06 -3.045983e-06 -1.912478e-07 8.5360836e-07
0001b0 bc f1 10 bc d0 b7 52 bb 80 b1 06 3a 0e 4a 31 bb
       -0.0088466965 -0.0032153018 0.0005138144 -0.0027052197
0001c0 91 d5 90 b9 af 8c 7e 3b c4 48 8d ba 5f 37 96 3a
       -0.0002762494 0.0038841178 -0.0010779132 0.0011460594
0001d0 2d 57 c7 3b a6 28 c5 3e ea b1 33 3e 7c 13 ce 3e
       0.00608339 0.38507575 0.17548338 0.4024924
0001e0 07 5a 75 3e c9 e2 f0 bc f1 46 49 3e 9e 76 aa 3e
       0.23960124 -0.029405015 0.19655968 0.33293623
0001f0 e9 f4 09 3e bc d2 a6 3e 1f c1 00 3a 7e 27 a2 39
       0.13472332 0.32582653 0.000491159 0.00030928472
000200 7e d8 ab 39 1b 9b 17 3a 1b e9 cf 39 2c 5b e1 39
       0.0003277696 0.00057833054 0.00039655794 0.00042983273
000210 16 23 48 3a e1 fa 13 3a 3f e0 19 3a 0d 97 38 3e
       0.0007634623 0.0005644989 0.0005869902 0.18026371
000220 66 02 c4 bd 60 9f 98 3e 20 15 16 be 6d 52 01 3e
       -0.0957077 0.29809093 -0.14656496 0.12629099
000230 23 cc e5 39 25 30 52 3e ac 94 8a 3e 77 55 59 3e
       0.00043830377 0.20526178 0.27066553 0.21224009
000240 a8 27 77 09 1f f2 8c 8b 45 82 3f 0b a0 6d d0 0a
       2.975019e-33 -5.429034e-32 3.6883266e-32 2.0070908e-32
000250 d3 36 d7 8a 55 75 d0 0b 79 c4 fd 89 b0 91 50 8b
       -2.072437e-32 8.029523e-32 -6.1092296e-33 -4.0168946e-32
000260 e5 f5 fa 0b 43 ab ad aa a3 48 9b aa f1 f1 a3 aa
       9.666648e-32 -3.084981e-13 -2.7583933e-13 -2.9122497e-13
000270 91 96 b2 aa e1 a8 94 aa ff 92 9b aa 2b b4 9c aa
       -3.1723628e-13 -2.6407265e-13 -2.763553e-13 -2.7836183e-13
000280 f6 d2 a3 aa 36 2f a2 aa be 2d df 0e a9 fb 1e 0e
       -2.9101e-13 -2.880974e-13 5.5017792e-30 1.9596174e-30
000290 18 0c 94 0d 6e 52 24 0e 13 ce 74 8c 97 29 32 0c
       9.124116e-31 2.025425e-30 -1.885909e-31 1.3725137e-31
0002a0 9f ea ab 0d 7e 1c b8 0c fd 0e 34 0e db 9d 00 80
       1.0595172e-30 2.8366837e-31 2.219393e-30 -5.6628e-41
0002b0 69 fd 00 00 d0 b4 00 80 6f da 00 00 1e 7c 00 80
       9.0906e-41 -6.4863e-41 7.8359e-41 -4.4525e-41
0002c0 a3 46 00 00 53 03 01 80 a7 71 00 00 e4 94 00 80
       2.534e-41 -9.3028e-41 4.0771e-41 -5.3412e-41
0002d0 28 58 d4 3a 07 2c 88 3b fa 10 13 3b d4 d6 7a 3b
       0.0016200589 0.004155639 0.0022440539 0.003827502
0002e0 33 45 c4 3b 26 fe 8d 3b 71 9f ef 39 c4 6d 2f 3b
       0.0059896945 0.0043332754 0.00045704425 0.0026768306
0002f0 67 18 ab 3a 2d ac e6 38 c8 8d b4 3a a7 c2 db 3a
       0.0013053537 0.00010999325 0.0013775164 0.0016766385
000300 f8 78 07 3a ce 58 98 ba 5c 24 4e ba fb 4e e1 3a
       0.0005167867 -0.0011623146 -0.00078636943 0.0017189676
000310 98 45 29 3b ef fc 01 3c 70 2e 83 be 9c 97 c0 bd
       0.0025828835 0.007933839 -0.25621367 -0.09403917
000320 39 4b 7b bd 69 fb e5 bd 67 b0 91 3d 36 28 30 3d
       -0.061351035 -0.11229593 0.07113724 0.0430071
000330 7f 0a c8 bd 8d c5 85 3d a1 02 aa 3d b8 35 93 87
       -0.09767627 0.065318204 0.08301283 -2.2149675e-34
000340 21 e9 2e 87 f6 22 96 86 23 60 d9 86 ad f0 b7 86
       -1.3158816e-34 -5.64751e-35 -8.176759e-35 -6.919059e-35
000350 3f db 63 86 2a 04 5b 84 d5 8b 20 86 98 50 0b 86
       -4.285503e-35 -2.5745238e-36 -3.0195388e-35 -2.6202205e-35
000360 6d 9f d4 3c 6e 51 63 ba b9 56 41 bd ed f2 98 bd
       0.025954926 -0.0008671497 -0.047201846 -0.074682094
000370 80 76 1c bd b8 bc 04 be c4 36 ff bd e9 9c ef bd
       -0.038198948 -0.12962615 -0.124616176 -0.1169985
000380 29 c5 9b be 46 0f a6 bd 70 ff a4 bd fb f5 c8 bd
       -0.3042386 -0.08108382 -0.08056533 -0.09812542
000390 eb 4d d5 bd 41 dc 5e bd 2c 97 ff bd b1 79 38 be
       -0.10415252 -0.05440927 -0.124800056 -0.18015172
0003a0 30 b8 01 be 73 cd 0d 3e ad de a1 be a4 3c 08 3d
       -0.12667918 0.13847904 -0.316152 0.033260956
0003b0 d6 64 1c be af 57 51 bd 50 cc ee bd ab ec 4d 3e
       -0.15272841 -0.051109012 -0.11660063 0.20109813
0003c0 0a 4c 26 be ef 43 4c 3a d9 16 67 bc b6 be bc 3d
       -0.16239944 0.00077921053 -0.014104568 0.09216063
0003d0 9b fd 51 bd f7 60 5a bc e8 1b b3 3d 42 df 56 bc
       -0.051267248 -0.013328782 0.08745557 -0.013114752
0003e0 9e 22 19 3e 65 72 b0 3e 56 84 4a 3e 63 84 e0 3b
       0.14954612 0.34462276 0.19777045 0.006851719
0003f0 17 f7 10 be 4a a9 84 bc 8d ad 3b 3e 54 b4 04 be
       -0.14156757 -0.016194005 0.18327923 -0.12959415

e_conv2.depth_conv.bias f4 [32]
000000 32 52 41 be 0d e5 12 3e fd 88 3e be 31 4c 9a bd
       -0.18879011 0.14345188 -0.18606944 -0.075340636
000010 14 23 06 38 b1 8c 36 3e 43 32 90 3e 89 27 74 bd
       3.198076e-05 0.17827107 0.28163347 -0.059608016
000020 56 ed 3d be 27 fc 7d 3e 27 3c 19 3d 06 fb 13 36
       -0.18547568 0.2480322 0.03741088 2.2050822e-06
000030 7f 9c 23 3e b6 30 07 3d a5 a1 14 be 75 79 a7 bd
       0.15977667 0.03300544 -0.14514787 -0.08177463
000040 79 ba 76 be 71 00 ec bb 44 f9 1c b5 6c 35 00 be
       -0.24094571 -0.007202201 -5.847726e-07 -0.12520379
000050 75 a3 d4 3d e6 cf 81 bd dd de 66 be 7a 1a 0b 3e
       0.103827395 -0.063384816 -0.22545953 0.13584319
000060 eb 57 03 be bb d1 35 be 95 b2 46 be a8 7f bd bc
       -0.12826507 -0.17755787 -0.19404061 -0.02313216
000070 9d da 3a 3e c9 7b 2b 3d fb 3c 04 3d 24 a8 b3 3d
       0.18247457 0.041866098 0.032284718 0.08772305

e_conv2.point_conv.weight f4 [32, 32, 1, 1]
000000 1b 5a 3b 3a 5e 48 bc bb 1d 90 3a 3a 06 3a aa 39
       0.00071469106 -0.0057459315 0.00071168115 0.00032468158
000010 61 f6 f4 b6 e5 5e 31 ba 76 6a d1 bc 4c cb 92 39
       -7.300449e-06 -0.00067661545 -0.02556346 0.00027998758
000020 2f 97 37 3a 41 c1 65 ba 8b 07 20 3b fb 47 69 34
       0.0007003424 -0.0008764454 0.0024418558 2.1726002e-07
000030 e9 b3 1f ba c4 03 de 3a 78 cb 11 3a ab 97 64 3c
       -0.00060921774 0.0016938378 0.000556163 0.013952176
000040 57 c5 6b 3a a3 7b 24 39 f2 f9 3d 34 ec 24 00 3a
       0.00089939445 0.00015686317 1.7692926e-07 0.0004888314
000050 c4 57 de b9 e1 c1 a3 39 65 e4 14 3a 33 ab 0b ba
       -0.0004240853 0.00031234234 0.00056797854 -0.000532794
000060 0f d9 d2 ba 56 ab 76 ba bd ee 17 ba 4c b6 bd b9
       -0.0016086417 -0.00094096863 -0.00057957676 -0.0003618471
000070 8d f9 14 3c 2e 6a 93 39 8b e1 73 b9 80 de c1 b9
       0.009092701 0.00028117135 -0.00023258307 -0.00036977604
000080 c6 c9 76 3c eb 45 5c 3d f9 dd 90 bd 81 a5 d3 bc
       0.015062755 0.053777616 -0.07073588 -0.025835754
000090 40 aa 06 b8 e6 da 01 3d 6e 40 9b 3e 47 34 8a bc
       -3.2106647e-05 0.0317029 0.30322593 -0.01687063
0000a0 f6 c2 30 bd 5a fb 3b 3e 6e 25 f8 bd 24 44 c4 b4
       -0.04315468 0.18357602 -0.12116514 -3.6557424e-07
0000b0 48 b7 03 3d 68 70 b7 3c 4c 7f 3a bd 10 e3 db bd
       0.032157212 0.022392467 -0.045531556 -0.10736668
0000c0 e6 18 50 bc b4 7f 38 bb 1b 5b 0b 36 f1 56 3b bd
       -0.012701249 -0.002815229 2.0765644e-06 -0.04573721
0000d0 a5 0c 79 3c 69 6b 0f bc 30 b5 45 3d 6d 0a 4d 3c
       0.015200769 -0.008753636 0.048268497 0.012514693
0000e0 e7 3c 57 3d d6 8b 5a 3c 86 cc 2c bd f5 5e c9 bc
       0.052548315 0.013339004 -0.042187236 -0.024581412
0000f0 6d 50 44 be 15 b0 7c bd a6 91 16 3c 35 b6 c5 bb
       -0.19171305 -0.061691362 0.009189999 -0.0060336837
000100 39 ff 8c 3a 1a 3d 83 bc 95 e9 87 3a c4 de 8b 39
       0.0010757215 -0.016020346 0.0010369295 0.0002667812
000110 7f d1 2f 37 49 8e 83 ba 07 ba 26 bd b7 d0 36 39
       1.047959e-05 -0.0010036911 -0.040704753 0.00017434625
000120 30 eb 88 3a 04 f7 46 bb a0 d4 ec 38 2f 75 80 b2
       0.0010446068 -0.0030359635 0.000112929614 -1.495445e-08
000130 37 f8 5a ba f6 ef 24 ba 70 aa 3b 3a 6e 4a 83 3c
       -0.0008353027 -0.00062918605 0.0007158881 0.016026702
000140 b2 0d cf 3a 4a 5d c8 b8 df fb d1 b4 59 d0 1d 3a
       0.0015796928 -9.5541196e-05 -3.9112544e-07 0.0006020121
000150 0a 05 e6 b9 a6 59 37 39 12 fb ec b9 fc 65 29 ba
       -0.00043872773 0.00017485637 -0.0004520049 -0.0006462035
000160 b6 83 a0 39 15 e3 1a bb 37 76 3d bb e3 47 b0 38
       0.0003061571 -0.0023633887 -0.0028909573 8.405724e-05
000170 fd 02 eb b8 ae 6b 3d 38 e1 73 b3 b7 60 c4 af b9
       -0.0001120623 4.5161396e-05 -2.1392423e-05 -0.00033524912
000180 84 66 00 80 eb f8 5f 26 59 55 00 00 19 c8 00 80
       -3.6776e-41 7.7706014e-16 3.0617e-41 -7.1782e-41
000190 7b cc 01 80 d6 03 00 00 f0 90 1c 28 f0 51 00 80
       -1.65189e-40 1.376e-42 8.691168e-15 -2.9394e-41
0001a0 f6 24 00 80 66 89 00 80 b2 95 00 80 ac fb 01 80
       -1.3259e-41 -4.9289e-41 -5.37e-41 -1.82118e-40
0001b0 c4 67 00 80 f3 53 c1 25 ec 9f 00 00 0f 88 83 28
       -3.7224e-41 3.353705e-16 5.7369e-41 1.4602928e-14
0001c0 a6 9a 4e 0a 59 d0 00 80 60 92 00 80 ac 43 00 80
       9.947625e-33 -7.4741e-41 -5.251e-41 -2.4276e-41
0001d0 ed 86 00 80 26 c7 00 00 5e f3 df 12 62 bc 00 00
       -4.8402e-41 7.1441e-41 1.4133273e-27 6.7579e-41
0001e0 91 47 a5 96 5c e3 a8 22 62 7a 84 21 92 dc 0f 8a
       -2.6702352e-25 4.5777217e-18 8.977062e-19 -6.926684e-33
0001f0 c9 0f 01 19 bb 15 00 80 3e 1a 00 80 a9 bc 00 80
       6.6723315e-24 -7.795e-42 -9.414e-42 -6.7679e-41
000200 04 18 5e 3b 35 e3 32 bc b1 95 3b 3b 3b 5b 83 3a
       0.0033888826 -0.010918428 0.0028623159 0.0010021696
000210 97 86 d8 b7 a2 f6 63 bb 4f c7 98 bd a5 82 42 3a
       -2.581188e-05 -0.0034784456 -0.0745989 0.000741998
000220 68 cb 31 3b aa 20 f6 bc bb 6e a3 ba b2 27 87 35
       0.0027129296 -0.030044872 -0.0012468913 1.0069837e-06
000230 05 b8 27 bb 29 b6 3e 3a b9 fd 0d 3b 78 f9 a0 3d
       -0.0025591862 0.0007275069 0.0021666123 0.078600824
000240 d4 f4 c0 3b 5c 56 87 b8 5f 8a 98 35 ff 77 e5 3a
       0.005888561 -6.453387e-05 1.1365154e-06 0.0017507075
000250 c7 a5 c8 ba 5d 5f 57 3a 04 9c c0 3c 3b 83 13 bb
       -0.0015308195 0.00082158094 0.023511894 -0.002250864
000260 f8 00 88 bb b2 3b 09 bd 8e 7e 6d bc a5 57 ae bb
       -0.004150506 -0.033504196 -0.014495505 -0.0053205066
000270 d1 d5 19 3d 9c e3 a6 3b c1 f6 79 b9 53 65 d3 ba
       0.037557427 0.005093051 -0.00023838413 -0.001612822
000280 73 66 3a 38 f9 47 c7 38 dc 25 38 38 00 cb c8 36
       4.444127e-05 9.5024654e-05 4.3904278e-05 5.984097e-06
000290 bf d1 42 b3 dc f8 2b b8 6c 06 8c ba eb 2d e0 35
       -4.5359908e-08 -4.1001345e-05 -0.0010683066 1.6702664e-06
0002a0 7f af 34 38 c4 a3 2b 37 ee 7c 96 b6 4a 57 fc b0
       4.3078788e-05 1.0230524e-05 -4.484892e-06 -1.8360222e-09
0002b0 c0 b5 09 b8 13 13 07 b9 7e 5c ea 37 8e 5d d6 b6
       -3.2832613e-05 -0.00012881709 2.7938044e-05 -6.388588e-06
0002c0 f8 4f 89 38 4e 48 88 b6 e6 fb ee 30 2f cf b6 37
       6.5475644e-05 -4.061533e-06 1.7388373e-09 2.1792568e-05
0002d0 94 03 69 b7 26 a2 17 36 b9 d5 ca 38 6d 84 d3 b7
       -1.3888715e-05 2.2595136e-06 9.6719195e-05 -2.5214826e-05
0002e0 14 a3 e3 38 1e 4c c7 38 b4 94 24 39 71 d9 a2 b8
       0.00010854579 9.5032374e-05 0.00015695655 -7.7652636e-05
0002f0 d4 00 d3 b8 59 89 e7 b5 ac ba c1 36 be 38 29 b7
       -0.00010061418 -1.7250815e-06 5.7735797e-06 -1.0086396e-05
000300 6c fe f8 bd 19 5c 91 bd f5 60 0f 3d e6 ef 9b bc
       -0.12157902 -0.07097644 0.035004575 -0.01903529
000310 ad 27 27 b9 fd 4b c9 3b 61 45 83 be cb 58 fa bc
       -0.00015941141 0.0061430917 -0.2563887 -0.030559918
000320 63 5d ba bd 89 fb b4 bc fc 9d 37 3e ff 7b 51 36
       -0.09099843 -0.022092598 0.1793136 3.1215602e-06
000330 b0 a9 03 3e b3 c7 ad bd 91 6c fc ba c3 0f c8 3b
       0.128577 -0.08485355 -0.001925843 0.0061053946
000340 c6 d1 2b bd 52 2f b9 bb f4 80 f5 37 0d 8b ee bd
       -0.041948102 -0.005651393 2.9266324e-05 -0.116476156
000350 65 2c d5 3d 0b ce 86 bb 56 7f 40 be e4 3b 87 bd
       0.10408858 -0.0041139177 -0.18798575 -0.0660322
000360 58 5c 4c 3d 93 7e 05 be 14 e2 3f be c8 5e 11 be
       0.049892753 -0.13036565 -0.18738586 -0.14196312
000370 aa ff d4 3d e0 f4 c4 3c 62 0f 0d 3d 63 b7 0a bb
       0.104003266 0.024042547 0.0344385 -0.0021166436
000380 86 f7 8f bc 3a 7a 6f 3c d6 8a 0a bd 31 a6 27 bc
       -0.017574083 0.014616543 -0.03382381 -0.010232494
000390 6e b1 a4 37 f5 49 9f 3c de ab 02 3e f4 c3 d3 bb
       1.9632946e-05 0.019444445 0.12760875 -0.0064625684
0003a0 a1 9d 75 bc ac 74 e1 ba a1 d8 c9 ba a6 4c 0d 36
       -0.014991195 -0.0017200909 -0.0015399643 2.1055253e-06
0003b0 cf 38 b8 3c a7 d6 96 3d ae 59 cf bc d0 07 61 3d
       0.022488026 0.073651604 -0.025311317 0.05493909
0003c0 3a ca 66 bb 8a 6e 58 ba 9f 91 68 b4 3b 8f bd bc
       -0.0035215751 -0.00082562177 -2.165966e-07 -0.023139587
0003d0 53 2b 45 3c 20 97 99 bb d5 9f ec 3c 18 f3 0d 3d
       0.012034255 -0.004687205 0.028884808 0.03465566
0003e0 8c b1 f0 3b 21 77 7f bd bc 9a 22 bd f9 2b 00 bd
       0.007345384 -0.06236947 -0.039698347 -0.031291936
0003f0 a0 33 50 3d f5 8c 79 bc c4 1d 30 3b 58 fe 49 bb
       0.050830483 -0.015231361 0.002687321 -0.0030821767

e_conv2.point_conv.bias f4 [32]
000000 22 71 44 bb 7d 42 23 3e bd 5f 5e bc 9f d6 07 af
       -0.002997466 0.15943332 -0.0135726305 -1.2354427e-10
000010 13 c2 22 bd 05 3e ec 39 e3 96 c7 bd 51 22 17 3e
       -0.039735865 0.00045059636 -0.09745576 0.14759184
000020 57 31 00 80 4b 48 01 00 37 26 04 bd 9b 7e 8a 3d
       -1.77e-41 1.1777e-40 -0.032263007 0.06762429
000030 f1 42 32 bd 4f e1 b5 b8 9f 79 a9 3a 70 b2 90 3d
       -0.04352087 -8.6727196e-05 0.0012929923 0.07065284
000040 10 2c 06 3e a9 aa c3 bd 86 76 a0 3d 17 91 00 80
       0.13102746 -0.09554035 0.078351066 -5.2048e-41
000050 46 7f 05 3e 94 21 00 80 e2 ed da 3d c6 a4 fe 9f
       0.13036832 -1.2046e-41 0.10689904 -1.0784578e-19
000060 e0 17 98 3d 89 be cb 3c 5a 95 08 95 2c b2 0a a2
       0.07426429 0.024871128 -2.75828e-26 -1.879681e-18
000070 d5 69 b0 3d 94 f8 09 3e 85 f1 65 35 af ec 00 00
       0.08613936 0.13473731 8.5660605e-07 8.4906e-41

e_conv3.depth_conv.weight f4 [32, 1, 3, 3]
000000 b2 d1 00 80 8b b9 00 80 13 66 01 80 a9 89 00 00
       -7.5225e-41 -6.656e-41 -1.28453e-40 4.9383e-41
000010 e7 fd 01 00 e8 23 00 80 e5 8b 00 00 8e cd 00 80
       1.82918e-40 -1.2881e-41 5.0185e-41 -7.3739e-41
000020 60 68 01 00 3a ed 00 00 c9 7b 00 80 44 16 01 00
       1.29278e-40 8.5101e-41 -4.4406e-41 9.9823e-41
000030 e7 03 01 00 76 78 00 00 7d 9e 00 80 d7 17 01 00
       9.3235e-41 4.3213e-41 -5.6855e-41 1.00388e-40
000040 0b 10 01 00 55 b9 01 80 5f 71 01 00 9a e3 01 00
       9.759e-41 -1.5832e-40 1.32505e-40 1.73484e-40
000050 35 bb 00 80 bd 7d 00 80 b8 b0 00 80 71 4c 01 80
       -6.7157e-41 -4.5106e-41 -6.3395e-41 -1.19258e-40
000060 85 b7 01 80 bd 49 01 80 cd 93 00 80 f4 5d 01 00
       -1.5767e-40 -1.18288e-40 -5.3021e-41 1.2554e-40
000070 03 c4 01 80 7c 70 01 80 2e 65 01 80 61 ed 00 80
       -1.62151e-40 -1.32187e-40 -1.28132e-40 -8.5156e-41
000080 53 74 00 80 9f f6 01 80 36 71 00 00 8a a3 00 00
       -4.1729e-41 -1.80306e-40 4.0612e-41 5.8667e-41
000090 45 b4 01 00 42 57 01 80 c0 4e 00 00 98 dd 00 00
       1.56504e-40 -1.23138e-40 2.825e-41 7.9493e-41
0000a0 95 31 01 80 c8 d5 00 80 97 0a 01 00 84 9e 00 00
       -1.09622e-40 -7.669e-41 9.5634e-41 5.6865e-41
0000b0 eb b0 00 80 ef 5f 01 80 36 fa 00 00 a3 22 01 80
       -6.3466e-41 -1.2625e-40 8.9759e-41 -1.04261e-40
0000c0 28 ba 01 80 83 10 00 80 2b f1 00 80 32 55 01 80
       -1.58616e-40 -5.923e-42 -8.6515e-41 -1.22398e-40
0000d0 90 2e 00 00 d3 3d 01 00 05 b1 01 00 df 60 00 00
       1.6703e-41 1.14014e-40 1.55338e-40 3.4751e-41
0000e0 3a 22 01 80 bf e0 00 80 79 34 01 00 8a 2f 00 80
       -1.04114e-40 -8.0624e-41 1.10659e-40 -1.7054e-41
0000f0 ca ee 00 00 e0 49 00 80 9f 9c 00 80 b5 5e 01 00
       8.5661e-41 -2.6501e-41 -5.6185e-41 1.2581e-40
000100 49 da 00 80 48 6e 01 00 95 ba 01 80 60 24 00 80
       -7.8306e-41 1.31397e-40 -1.58769e-40 -1.3049e-41
000110 96 fd 00 80 65 d9 00 00 b9 e2 00 80 8d 4e 00 00
       -9.097e-41 7.7986e-41 -8.1333e-41 2.8179e-41
000120 e9 5c 01 80 ef b5 00 00 a4 5f 01 80 09 73 00 00
       -1.25165e-40 6.5265e-41 -1.26145e-40 4.1267e-41
000130 d9 8a 01 00 63 05 01 00 79 7b 00 80 c9 a1 00 00
       1.41645e-40 9.3768e-41 -4.4294e-41 5.8038e-41
000140 e3 f9 00 80 ed 92 00 80 26 1f 01 80 84 80 00 00
       -8.9642e-41 -5.2707e-41 -1.0301e-40 4.6103e-41
000150 10 2e 01 00 55 2e 00 80 b9 1c 00 80 9c 26 01 00
       1.0836e-40 -1.6621e-41 -1.0304e-41 1.05686e-40
000160 86 07 01 00 89 2f 02 00 4d e9 01 80 4d be 01 00
       9.4534e-41 2.00723e-40 -1.75528e-40 1.60103e-40
000170 b0 72 01 00 5e 64 01 00 24 90 00 00 5a 1b 02 00
       1.32978e-40 1.2784e-40 5.1708e-41 1.93483e-40
000180 f7 1c 00 00 cb 48 00 00 4b 97 00 80 53 b2 00 00
       1.039e-41 2.6113e-41 -5.4274e-41 6.397e-41
000190 aa f6 01 00 e7 a6 01 00 03 05 01 00 be ad 00 00
       1.80322e-40 1.51709e-40 9.3633e-41 6.2327e-41
0001a0 3a 11 01 00 cc 96 01 80 d2 41 01 00 fa 3c 01 00
       9.8015e-41 -1.45931e-40 1.15447e-40 1.1371e-40
0001b0 f3 75 01 80 f2 1e 01 80 7e c2 01 80 76 03 01 00
       -1.34148e-40 -1.02937e-40 -1.61606e-40 9.3077e-41
0001c0 ad e7 00 80 ea 63 01 80 81 1e 00 00 f6 6a 00 80
       -8.311e-41 -1.27678e-40 1.0943e-41 -3.837e-41
0001d0 a6 cd 00 80 3d 3f 01 00 39 30 00 80 36 95 00 80
       -7.3773e-41 1.14521e-40 -1.7299e-41 -5.3527e-41
0001e0 c8 1b 01 80 96 be 01 80 79 d6 00 80 7b 23 00 00
       -1.01802e-40 -1.60205e-40 -7.6938e-41 1.2728e-41
0001f0 3f 8c 01 80 f3 a1 00 80 0b 9e 01 00 8c 14 02 80
       -1.42146e-40 -5.8096e-41 1.4853e-40 -1.91042e-40
000200 6a 97 01 00 38 e8 00 00 8a e3 00 80 66 db 00 00
       1.46153e-40 8.3304e-41 -8.1626e-41 7.8705e-41
000210 9a 46 01 00 20 5c 01 00 44 d6 01 00 d7 52 01 80
       1.17163e-40 1.24884e-40 1.687e-40 -1.21553e-40
000220 bc 00 02 00 ff c5 01 80 59 b3 00 80 6f 34 00 80
       1.83934e-40 -1.62863e-40 -6.4338e-41 -1.881e-41
000230 1c 5c 01 80 05 50 00 80 8b 23 01 00 29 5b 00 80
       -1.24878e-40 -2.8706e-41 1.04586e-40 -3.2702e-41
000240 25 6f 01 00 0e 17 01 80 35 d5 01 00 b0 40 00 00
       1.31707e-40 -1.00106e-40 1.6832e-40 2.3206e-41
000250 cf 06 01 00 ed 11 00 00 98 6f 00 00 81 e9 00 00
       9.4278e-41 6.43e-42 4.0032e-41 8.3765e-41
000260 ae 0c 00 80 e9 15 00 80 df 7a 00 00 a1 07 02 80
       -4.549e-42 -7.86e-42 4.4078e-41 -1.86408e-40
000270 a5 0a 01 00 d6 94 00 00 6a 8d 01 00 69 a7 00 80
       9.5654e-41 5.3392e-41 1.42565e-40 -6.0055e-41
000280 d8 75 01 80 37 80 00 00 b2 ad 01 00 53 68 00 80
       -1.3411e-40 4.5995e-41 1.54146e-40 -3.7424e-41
000290 a6 f8 01 80 6a a2 01 80 24 6c 01 00 15 1d 01 80
       -1.81034e-40 -1.50099e-40 1.30629e-40 -1.02268e-40
0002a0 9a 8d 01 80 ca 57 01 00 e0 6a 01 00 08 2e 01 80
       -1.42633e-40 1.23328e-40 1.30175e-40 -1.08348e-40
0002b0 2b 9c 00 00 4e 1c 01 80 49 f2 00 00 38 c3 00 80
       5.6023e-41 -1.0199e-40 8.6916e-41 -7.0031e-41
0002c0 03 58 00 00 b4 00 00 80 bc 99 00 00 f8 1b 00 00
       3.1573e-41 -2.52e-43 5.515e-41 1.0033e-41
0002d0 eb 1d 00 80 53 2f 00 00 a7 02 00 00 67 1e 01 00
       -1.0733e-41 1.6977e-41 9.51e-43 1.02742e-40
0002e0 0f 29 01 00 c8 76 01 00 72 49 01 80 76 18 02 00
       1.06565e-40 1.34446e-40 -1.18183e-40 1.92446e-40
0002f0 7f 1d 01 80 3a 19 02 80 77 05 00 00 b8 ef 00 80
       -1.02417e-40 -1.9272e-40 1.96e-42 -8.5995e-41
000300 84 a7 00 00 c1 84 01 00 5c 22 01 80 03 f9 00 00
       6.0093e-41 1.39459e-40 -1.04161e-40 8.9329e-41
000310 0b 2c 02 80 56 fa 01 80 c4 be 00 80 dd 38 00 80
       -1.9947e-40 -1.81639e-40 -6.8434e-41 -2.0399e-41
000320 f4 8b 01 80 6d 21 01 80 9a d9 00 00 b1 05 02 00
       -1.42041e-40 -1.03826e-40 7.8061e-41 1.85713e-40
000330 69 39 00 80 b4 7b 00 80 53 b2 01 00 4a 15 01 00
       -2.0595e-41 -4.4376e-41 1.55806e-40 9.9473e-41
000340 12 27 00 00 76 5f 01 80 56 15 01 00 8c 5c 01 00
       1.4016e-41 -1.2608e-40 9.949e-41 1.25035e-40
000350 4e cf 00 00 3a 0a 02 80 7f 58 00 00 23 26 02 80
       7.4367e-41 -1.8734e-40 3.1746e-41 -1.97352e-40
000360 87 8e 01 80 30 5d 01 00 ff 5a 01 00 b1 02 00 80
       -1.42965e-40 1.25265e-40 1.24479e-40 -9.65e-43
000370 1f 0f 01 80 dd f3 01 80 4d 44 00 00 45 65 00 00
       -9.726e-41 -1.79317e-40 2.4502e-41 3.6329e-41
000380 35 98 00 00 0f 04 01 00 18 8a 00 00 3a 4c 00 80
       5.4602e-41 9.3291e-41 4.9539e-41 -2.7345e-41
000390 7e 9d 00 00 e1 8d 00 80 2e 0e 00 80 41 fe 00 00
       5.6498e-41 -5.0897e-41 -5.087e-42 9.1209e-41
0003a0 af 77 01 00 aa 35 01 80 38 2e 00 00 a4 b2 00 80
       1.3477e-40 -1.11087e-40 1.658e-41 -6.4084e-41
0003b0 e5 04 00 00 d1 a6 01 80 30 82 01 00 6a 3f 01 00
       1.756e-42 -1.51678e-40 1.38538e-40 1.14584e-40
0003c0 42 74 00 80 6c 57 01 00 ed 09 01 00 a0 3b 01 80
       -4.1705e-41 1.23197e-40 9.5396e-41 -1.13225e-40
0003d0 09 fe 01 80 84 ed 01 80 bb 6d 01 80 0e c2 00 80
       -1.82966e-40 -1.7704e-40 -1.312e-40 -6.9614e-41
0003e0 5e 03 00 80 71 d0 01 80 af ca 00 00 b7 e5 00 80
       -1.208e-42 -1.6661e-40 7.2709e-41 -8.2406e-41
0003f0 6e e1 00 00 73 6b 00 00 92 2a 02 80 b5 9b 00 00
       8.0869e-41 3.8546e-41 -1.98942e-40 5.5857e-41

e_conv3.depth_conv.bias f4 [32]
000000 e3 9c 00 00 9d bc 00 00 0f 31 01 00 2e 22 02 00
       5.628e-41 6.7662e-41 1.09434e-40 1.95932e-40
000010 e0 47 01 80 2c 40 01 00 1b 51 01 80 75 7b 00 80
       -1.1762e-40 1.14856e-40 -1.2093e-40 -4.4288e-41
000020 42 6d 00 00 69 e7 01 00 58 87 00 80 96 18 01 00
       3.9194e-41 1.7485e-40 -4.8552e-41 1.00655e-40
000030 5f 59 00 00 a1 fb 00 00 16 0e 00 80 10 27 01 00
       3.206e-41 9.0267e-41 -5.053e-42 1.05848e-40
000040 3d c0 00 00 fc 8f 00 00 5e 0b 01 80 95 5e 00 00
       6.8962e-41 5.1652e-41 -9.5913e-41 3.393e-41
000050 e0 16 01 80 0d 12 01 80 ce 0d 02 80 ce 3e 00 80
       -1.00041e-40 -9.8311e-41 -1.88623e-40 -2.253e-41
000060 e0 98 00 80 69 5c 01 80 aa dc 00 80 a3 f3 00 00
       -5.4841e-41 -1.24986e-40 -7.916e-41 8.74e-41
000070 b5 45 01 00 1c e3 01 80 f7 d7 01 80 9d 4a 00 80
       1.16842e-40 -1.73307e-40 -1.69309e-40 -2.6766e-41

e_conv3.point_conv.weight f4 [32, 32, 1, 1]
000000 6f 4b 01 00 75 a8 01 80 18 1c 01 00 6d ea 01 80
       1.18896e-40 -1.52266e-40 1.01914e-40 -1.75932e-40
000010 60 46 01 80 59 1d 00 80 58 08 00 00 27 6c 01 80
       -1.17081e-40 -1.0528e-41 2.993e-42 -1.30633e-40
000020 55 12 00 80 62 7c 00 80 43 55 01 00 b5 24 01 80
       -6.576e-42 -4.462e-41 1.22422e-40 -1.05003e-40
000030 ca b4 01 80 fd 2d 01 00 88 1e 01 80 fe 17 01 00
       -1.5669e-40 1.08333e-40 -1.02788e-40 1.00442e-40
000040 23 16 00 80 5d 3d 00 00 c7 b8 00 00 a5 09 01 80
       -7.941e-42 2.2013e-41 6.6286e-41 -9.5295e-41
000050 9e ff 00 00 b0 32 01 80 67 8b 00 00 fa 3b 01 80
       9.1698e-41 -1.10019e-40 5.0008e-41 -1.13351e-40
000060 33 6c 00 00 0c 99 00 00 4a 4a 00 00 03 9f 00 00
       3.8815e-41 5.4903e-41 2.665e-41 5.7043e-41
000070 38 12 01 80 0d a8 00 00 19 24 02 80 cc 72 01 00
       -9.8371e-41 6.0285e-41 -1.9662e-40 1.33017e-40
000080 0d 69 01 80 1b 08 01 00 13 a1 01 80 a6 c0 01 00
       -1.2952e-40 9.4743e-41 -1.49618e-40 1.60945e-40
000090 08 81 01 80 16 5b 00 80 47 dd 00 00 d8 ee 01 80
       -1.38123e-40 -3.2675e-41 7.938e-41 -1.77516e-40
0000a0 86 03 01 00 88 31 00 80 e6 10 00 80 02 42 01 00
       9.31e-41 -1.7768e-41 -6.062e-42 1.15515e-40
0000b0 4c 02 00 80 e1 7a 00 80 bf 20 02 00 41 e5 00 80
       -8.24e-43 -4.408e-41 1.95418e-40 -8.2241e-41
0000c0 91 2f 02 80 cd db 00 00 90 8e 01 00 c7 0e 00 00
       -2.00735e-40 7.885e-41 1.42977e-40 5.301e-42
0000d0 04 53 00 00 96 92 00 80 b2 29 00 80 99 1b 01 00
       2.978e-41 -5.2585e-41 -1.4957e-41 1.01736e-40
0000e0 64 ff 01 00 c5 e7 00 80 0e ec 01 80 3e 83 00 80
       1.83452e-40 -8.3143e-41 -1.76516e-40 -4.7081e-41
0000f0 24 2d 00 00 55 03 00 80 90 0f 00 80 68 3d 01 80
       1.6193e-41 -1.195e-42 -5.583e-42 -1.13864e-40
000100 53 d7 01 00 36 93 01 00 94 a3 01 00 81 66 01 80
       1.69079e-40 1.44645e-40 1.50516e-40 -1.28607e-40
000110 34 4e 00 80 26 4e 00 80 a2 17 01 00 03 10 00 00
       -2.8054e-41 -2.8034e-41 1.00313e-40 5.744e-42
000120 36 ce 00 80 b2 2a 01 80 6f 77 00 00 69 01 01 80
       -7.3975e-41 -1.07152e-40 4.2845e-41 -9.2341e-41
000130 01 07 01 80 19 6b 01 00 7e 3a 00 80 6a b7 01 00
       -9.4348e-41 1.30255e-40 -2.0983e-41 1.57632e-40
000140 2e dc 00 00 f6 23 00 00 ba d4 00 00 b4 8d 01 80
       7.8986e-41 1.29e-41 7.6312e-41 -1.42669e-40
000150 dd c2 00 00 88 04 01 80 11 b1 01 80 fd bc 00 00
       6.9904e-41 -9.3461e-41 -1.55355e-40 6.7796e-41
000160 32 69 01 00 5b a3 00 00 99 7d 01 80 cf 0c 00 80
       1.29572e-40 5.8601e-41 -1.36891e-40 -4.595e-42
000170 c0 1c 00 80 a9 01 00 00 69 c0 00 80 e8 8f 01 80
       -1.0314e-41 5.96e-43 -6.9024e-41 -1.4346e-40
000180 3d 6f 01 00 28 17 02 80 81 0e 02 80 9e d2 00 00
       1.3174e-40 -1.91978e-40 -1.88874e-40 7.5555e-41
000190 b9 a7 01 00 aa 7c 01 80 af 5a 01 80 50 7b 00 80
       1.52003e-40 -1.36557e-40 -1.24367e-40 -4.4236e-41
0001a0 b6 3e 01 80 c4 74 00 80 c0 5d 01 00 2b 8b 01 80
       -1.14332e-40 -4.1888e-41 1.25467e-40 -1.4176e-40
0001b0 1d af 00 00 3d e6 00 00 7b f4 00 80 0f 38 01 80
       6.2819e-41 8.2594e-41 -8.7703e-41 -1.11946e-40
0001c0 fe 15 01 80 30 82 01 00 13 ca 00 00 ff 94 00 80
       -9.9725e-41 1.38538e-40 7.249e-41 -5.345e-41
0001d0 0e ff 01 80 4e 26 00 80 10 03 02 00 66 3a 01 80
       -1.83332e-40 -1.3741e-41 1.8477e-40 -1.12785e-40
0001e0 f5 7d 00 00 c1 9e 00 00 a2 4e 01 80 a0 5a 01 80
       4.5185e-41 5.695e-41 -1.20044e-40 -1.24346e-40
0001f0 1d b4 00 00 c1 ae 00 00 1e d3 01 00 64 60 00 80
       6.4612e-41 6.269e-41 1.6757e-40 -3.4578e-41
000200 2a b4 00 80 37 2e 00 80 58 1b 02 80 9d 0b 00 00
       -6.463e-41 -1.6579e-41 -1.9348e-40 4.166e-42
000210 4d 3d 01 80 46 62 01 80 a8 05 00 00 14 4e 00 80
       -1.13826e-40 -1.2709e-40 2.029e-42 -2.8009e-41
000220 76 60 00 00 73 17 01 80 7e cd 01 80 ad f3 01 00
       3.4604e-41 -1.00247e-40 -1.65552e-40 1.7925e-40
000230 3b 43 00 80 29 b3 00 80 c0 3c 00 80 72 79 00 00
       -2.4118e-41 -6.427e-41 -2.1793e-41 4.3566e-41
000240 13 72 01 80 ef 6b 01 00 3c d3 01 00 dc 2a 00 00
       -1.32758e-40 1.30555e-40 1.67612e-40 1.5375e-41
000250 ad 7a 00 00 72 b0 01 00 5e 06 02 00 1e f8 00 00
       4.4008e-41 1.55132e-40 1.85955e-40 8.9008e-41
000260 69 c9 00 00 2c 0c 01 00 26 05 01 80 f0 b8 01 00
       7.2252e-41 9.6202e-41 -9.3682e-41 1.58179e-40
000270 56 03 02 00 cc 31 01 00 87 e5 01 80 b5 4a 01 80
       1.84868e-40 1.09699e-40 -1.74174e-40 -1.18635e-40
000280 d6 c9 00 00 15 1b 01 80 84 65 01 80 98 84 00 00
       7.2405e-41 -1.0155e-40 -1.28252e-40 4.7566e-41
000290 b2 ab 00 80 2e 44 01 00 90 0c 00 80 24 23 00 00
       -6.1593e-41 1.16294e-40 -4.507e-42 1.2606e-41
0002a0 75 64 01 00 08 08 00 00 b8 f5 01 00 e1 03 01 00
       1.27873e-40 2.881e-42 1.79983e-40 9.3227e-41
0002b0 fe 9a 00 80 f6 7c 00 00 65 34 01 00 fe 06 02 80
       -5.5601e-41 4.4828e-41 1.10631e-40 -1.8618e-40
0002c0 71 7f 01 00 34 2f 01 80 01 08 02 00 c2 61 00 00
       1.37553e-40 -1.08769e-40 1.86542e-40 3.5069e-41
0002d0 c4 d5 00 00 ca a4 01 00 33 ad 01 00 0a 30 01 80
       7.6685e-41 1.5095e-40 1.53968e-40 -1.09069e-40
0002e0 df 48 00 00 78 3a 01 80 a1 7e 00 80 31 d8 01 00
       2.6141e-41 -1.1281e-40 -4.5426e-41 1.6939e-40
0002f0 56 0a 01 80 f3 ef 00 80 2c 19 01 00 0e 10 01 00
       -9.5543e-41 -8.6078e-41 1.00865e-40 9.7595e-41
000300 0b d0 01 80 d1 da 01 80 24 3c 01 00 8b a5 00 80
       -1.66467e-40 -1.70332e-40 1.1341e-40 -5.9386e-41
000310 43 92 00 80 e0 3e 00 00 11 52 00 80 51 22 00 00
       -5.2469e-41 2.2555e-41 -2.944e-41 1.231e-41
000320 b7 2d 01 80 d3 94 00 00 60 0a 01 00 3f 3f 00 80
       -1.08235e-40 5.3388e-41 9.5557e-41 -2.2688e-41
000330 fe dd 00 00 44 05 01 00 33 21 01 80 c6 8c 00 80
       7.9636e-41 9.3724e-41 -1.03745e-40 -5.05e-41
000340 e1 4b 01 00 73 11 01 80 99 1e 01 80 f0 33 01 80
       1.19056e-40 -9.8095e-41 -1.02812e-40 -1.10467e-40
000350 cd 20 00 00 e5 7c 00 80 3e 48 01 00 dd a7 00 80
       1.1767e-41 -4.4804e-41 1.17751e-40 -6.0218e-41
000360 e2 c2 00 00 fd 64 01 00 9d 14 00 80 a5 f5 01 00
       6.9911e-41 1.28063e-40 -7.395e-42 1.79956e-40
000370 3f 37 01 80 81 d6 01 00 5d 3c 00 00 ec 8b 00 00
       -1.11654e-40 1.68785e-40 2.1654e-41 5.0195e-41
000380 a3 3a 01 80 a1 9b 00 80 44 39 01 80 cb 82 00 00
       -1.1287e-40 -5.5829e-41 -1.12379e-40 4.692e-41
000390 5d 34 01 80 0b 2a 00 80 2d 05 01 80 24 6c 01 80
       -1.1062e-40 -1.5082e-41 -9.3692e-41 -1.30629e-40
0003a0 ea 2b 01 00 28 ae 00 00 43 84 01 00 05 7a 00 80
       1.07589e-40 6.2475e-41 1.39282e-40 -4.3772e-41
0003b0 04 6d 01 80 89 9f 00 80 d3 bf 00 00 ca 8e 00 00
       -1.30943e-40 -5.723e-41 6.8814e-41 5.1223e-41
0003c0 29 7c 01 80 51 aa 01 80 ea 96 01 00 ca 84 00 80
       -1.36376e-40 -1.52934e-40 1.45973e-40 -4.7636e-41
0003d0 5e 91 01 00 08 af 00 00 0c a6 00 00 fc 00 01 80
       1.43983e-40 6.279e-41 5.9566e-41 -9.2189e-41
0003e0 a3 29 00 00 1c 0e 00 00 b0 aa 01 00 80 be 00 80
       1.4936e-41 5.061e-42 1.53067e-40 -6.8339e-41
0003f0 71 1b 00 00 21 24 01 80 3e 3f 01 80 89 5b 00 80
       9.844e-42 -1.04796e-40 -1.14523e-40 -3.2837e-41

e_conv3.point_conv.bias f4 [32]
000000 a0 b8 00 80 aa a4 00 00 ec 13 01 00 d6 02 00 00
       -6.6231e-41 5.907e-41 9.8982e-41 1.017e-42
000010 b9 b2 00 80 5b 25 00 80 c8 01 02 80 ff 68 01 80
       -6.4114e-41 -1.34e-41 -1.8431e-40 -1.29501e-40
000020 9a 54 00 00 93 ec 01 80 67 f6 00 00 5e 09 00 80
       3.035e-41 -1.76702e-40 8.8393e-41 -3.36e-42
000030 75 ee 01 80 eb 2d 01 00 2e 6e 01 00 71 43 01 00
       -1.77378e-40 1.08308e-40 1.3136e-40 1.16029e-40
000040 0c 0f 01 00 ca c7 00 00 0f c0 01 80 f1 91 01 80
       9.7233e-41 7.1671e-41 -1.60733e-40 -1.4419e-40
000050 39 ab 00 80 65 dc 00 80 b2 7b 00 00 55 57 00 80
       -6.1423e-41 -7.9063e-41 4.4374e-41 -3.1329e-41
000060 36 20 00 80 c6 57 01 80 93 44 01 00 90 10 02 00
       -1.1555e-41 -1.23323e-40 1.16435e-40 1.89612e-40
000070 a5 e4 00 00 f6 83 00 80 2e 02 00 00 bf 99 01 80
       8.2022e-41 -4.7339e-41 7.82e-43 -1.46989e-40

e_conv4.depth_conv.weight f4 [32, 1, 3, 3]
000000 9b 28 01 00 61 5d 00 80 c7 03 00 00 17 3c 00 00
       1.06402e-40 -3.3498e-41 1.355e-42 2.1556e-41
000010 e5 25 01 80 e2 61 01 00 f4 18 01 80 48 78 00 80
       -1.0543e-40 1.26949e-40 -1.00787e-40 -4.3149e-41
000020 0f 37 00 80 b1 e6 00 80 46 7c 00 00 1c 27 01 80
       -1.9751e-41 -8.2756e-41 4.4581e-41 -1.05865e-40
000030 c7 b6 00 00 79 90 00 80 5e 97 00 80 d4 1e 01 00
       6.5568e-41 -5.1827e-41 -5.43e-41 1.02895e-40
000040 07 95 01 80 81 46 00 00 3f 5b 00 00 b2 c1 00 80
       -1.45296e-40 2.5292e-41 3.2733e-41 -6.9485e-41
000050 56 9a 00 80 d6 89 00 00 b5 98 00 80 dd 41 00 80
       -5.5365e-41 4.9446e-41 -5.4781e-41 -2.3627e-41
000060 0c 0e 00 80 1e d3 00 80 2a 78 00 00 bd fe 00 00
       -5.039e-42 -7.5735e-41 4.3107e-41 9.1383e-41
000070 b7 1a 01 00 36 8a 00 80 ff de 00 80 f4 9e 00 80
       1.01419e-40 -4.9581e-41 -7.9996e-41 -5.7022e-41
000080 1f e1 00 80 32 46 01 00 4c b2 01 80 73 e8 01 80
       -8.0758e-41 1.17017e-40 -1.55796e-40 -1.75223e-40
000090 93 0e 00 80 17 a1 00 00 b2 99 00 00 7d 12 00 80
       -5.228e-42 5.7788e-41 5.5135e-41 -6.632e-42
0000a0 9f 20 00 80 97 69 01 00 fa 99 00 80 f8 05 01 00
       -1.1702e-41 1.29714e-40 -5.5236e-41 9.3977e-41
0000b0 0e 0a 00 80 80 cc 01 80 c4 b8 00 80 60 eb 01 80
       -3.607e-42 -1.65196e-40 -6.6281e-41 -1.76272e-40
0000c0 59 84 01 80 89 07 01 00 29 7f 01 00 1a 4a 01 80
       -1.39313e-40 9.4539e-41 1.37452e-40 -1.18418e-40
0000d0 a0 e5 01 00 13 0f 01 00 8b 8d 00 80 cb 10 00 00
       1.7421e-40 9.7243e-41 -5.0776e-41 6.024e-42
0000e0 32 aa 00 00 1e c4 00 80 77 2b 00 80 42 61 00 80
       6.1055e-41 -7.0354e-41 -1.5592e-41 -3.489e-41
0000f0 cc 05 00 80 55 27 01 80 60 ee 00 80 6c 3f 01 00
       -2.08e-42 -1.05945e-40 -8.5513e-41 1.14587e-40
000100 bd 50 01 00 e7 f9 00 00 52 f4 00 80 99 f3 00 80
       1.20799e-40 8.9648e-41 -8.7646e-41 -8.7386e-41
000110 b0 06 01 00 a3 f4 01 80 e8 89 00 80 7e 12 02 00
       9.4235e-41 -1.79595e-40 -4.9471e-41 1.90305e-40
000120 86 9d 00 80 42 51 00 00 30 67 01 80 b4 4f 01 80
       -5.6509e-41 2.915e-41 -1.28852e-40 -1.20428e-40
000130 1a f9 00 00 43 50 00 80 f2 1c 01 80 82 59 01 00
       8.9361e-41 -2.8792e-41 -1.02219e-40 1.23945e-40
000140 32 08 00 80 ea 61 01 80 aa 48 00 80 0c 0c 02 00
       -2.94e-42 -1.2696e-40 -2.6067e-41 1.87993e-40
000150 3e 6e 01 80 e3 61 00 00 d7 8f 01 80 2a 20 00 00
       -1.31383e-40 3.5115e-41 -1.43436e-40 1.1538e-41
000160 b5 a3 00 00 2c 2d 01 00 41 87 01 00 d2 bc 00 00
       5.8727e-41 1.0804e-40 1.40355e-40 6.7736e-41
000170 32 03 00 00 1d 41 01 80 82 f4 01 00 c4 1c 01 00
       1.146e-42 -1.15194e-40 1.79548e-40 1.02155e-40
000180 ea 47 00 80 32 ed 01 00 72 5b 00 00 8d 2b 01 00
       -2.5798e-41 1.76925e-40 3.2804e-41 1.07459e-40
000190 a3 66 01 00 24 30 01 80 8b f8 00 00 4e 95 00 00
       1.28655e-40 -1.09105e-40 8.916e-41 5.356e-41
0001a0 ac 53 00 80 9e 67 01 80 55 0f 02 80 42 46 00 80
       -3.0016e-41 -1.29006e-40 -1.89171e-40 -2.5204e-41
0001b0 58 3f 01 80 6d ba 01 00 22 13 01 00 66 1c 02 80
       -1.14559e-40 1.58712e-40 9.8699e-41 -1.93858e-40
0001c0 a8 89 00 80 02 f3 00 00 96 72 01 80 30 14 00 80
       -4.9382e-41 8.7175e-41 -1.32941e-40 -7.242e-42
0001d0 c3 ee 01 80 f9 82 01 00 ab a1 00 80 ca b0 00 80
       -1.77487e-40 1.3882e-40 -5.7996e-41 -6.342e-41
0001e0 b5 b5 00 00 4d 79 01 00 1d b5 00 00 f7 e7 01 00
       6.5184e-41 1.3535e-40 6.4971e-41 1.75049e-40
0001f0 33 29 01 00 ab 4e 00 00 f7 70 00 00 5b 3e 01 00
       1.06615e-40 2.8221e-41 4.0524e-41 1.14204e-40
000200 35 e7 00 00 de 1f 00 80 62 1d 00 80 4b d5 00 80
       8.2941e-41 -1.1432e-41 -1.054e-41 -7.6515e-41
000210 ba 55 01 80 95 be 00 80 f8 8b 00 80 e3 f8 00 00
       -1.22588e-40 -6.8368e-41 -5.0211e-41 8.9284e-41
000220 dd e2 00 80 0a 49 01 00 3f e8 01 80 6d 4b 01 80
       -8.1383e-41 1.18037e-40 -1.7515e-40 -1.18893e-40
000230 6d 6b 01 80 8f 39 00 80 69 2b 00 00 f3 ef 00 00
       -1.30373e-40 -2.0648e-41 1.5573e-41 8.6078e-41
000240 53 a0 01 80 79 a0 00 00 0e fb 00 80 03 bd 00 00
       -1.49349e-40 5.7567e-41 -9.0061e-41 6.7805e-41
000250 b8 28 01 00 00 9d 00 00 34 25 01 80 c0 88 00 00
       1.06443e-40 5.6321e-41 -1.05181e-40 4.9057e-41
000260 d2 8b 00 80 44 f6 00 80 5b 1c 01 80 67 88 01 80
       -5.0158e-41 -8.8343e-41 -1.02008e-40 -1.40767e-40
000270 26 18 00 00 be 04 01 00 08 9b 00 80 09 79 00 80
       8.663e-42 9.3537e-41 -5.5615e-41 -4.3419e-41
000280 ea 2d 02 80 02 87 00 00 59 c6 01 00 30 c1 00 00
       -2.00142e-40 4.8432e-41 1.62989e-40 6.9303e-41
000290 2f 45 00 00 76 c0 01 80 b1 d6 00 80 e7 1f 01 00
       2.4818e-41 -1.60877e-40 -7.7017e-41 1.0328e-40
0002a0 a4 d3 01 80 65 dd 00 80 fe 26 00 00 87 e5 00 00
       -1.67758e-40 -7.9421e-41 1.3988e-41 8.2339e-41
0002b0 37 90 00 80 ad 9b 00 80 90 93 00 00 b8 31 01 00
       -5.1735e-41 -5.5846e-41 5.2935e-41 1.09671e-40
0002c0 66 89 00 00 00 fd 01 80 d5 29 00 00 aa 59 00 00
       4.9289e-41 -1.82595e-40 1.5007e-41 3.2165e-41
0002d0 34 58 00 00 89 85 00 00 93 2e 01 80 79 a3 00 80
       3.1641e-41 4.7903e-41 -1.08543e-40 -5.8643e-41
0002e0 03 2b 01 80 93 93 00 80 2d 47 00 80 3b 08 01 80
       -1.07265e-40 -5.294e-41 -2.5533e-41 -9.4788e-41
0002f0 1c 11 01 80 5d 46 01 80 82 35 00 00 d3 35 01 80
       -9.7973e-41 -1.17077e-40 1.9195e-41 -1.11144e-40
000300 7f 93 00 00 f7 be 01 80 35 47 01 80 f1 af 01 80
       5.2912e-41 -1.60341e-40 -1.1738e-40 -1.54951e-40
000310 fc e8 00 80 a1 02 00 80 91 f7 00 00 22 27 01 80
       -8.3579e-41 -9.43e-43 8.881e-41 -1.05874e-40
000320 60 7c 00 80 db 8d 00 00 40 e7 00 00 86 59 01 80
       -4.4617e-41 5.0888e-41 8.2957e-41 -1.2395e-40
000330 d5 2a 01 00 39 3e 01 00 68 2c 01 00 c9 1b 00 80
       1.07201e-40 1.14157e-40 1.07765e-40 -9.967e-42
000340 af e1 01 80 6b d3 01 00 47 ff 00 80 7a a4 00 80
       -1.72796e-40 1.67678e-40 -9.1576e-41 -5.9003e-41
000350 af 0b 00 00 7b 34 01 00 17 3c 00 00 38 8a 00 80
       4.191e-42 1.10662e-40 2.1556e-41 -4.9584e-41
000360 77 12 00 80 f9 ca 01 00 ab 3d 01 80 bb 5d 00 80
       -6.624e-42 1.64648e-40 -1.13958e-40 -3.3624e-41
000370 98 a8 00 80 e2 8c 00 00 61 66 00 00 05 1c 01 80
       -6.048e-41 5.0539e-41 3.6727e-41 -1.01887e-40
000380 fb b2 01 00 6d 6f 00 80 8d 10 00 80 c2 61 00 00
       1.56042e-40 -3.9972e-41 -5.937e-42 3.5069e-41
000390 34 1f 00 00 0f 52 01 00 f0 f7 00 80 be a4 00 00
       1.1194e-41 1.21273e-40 -8.8943e-41 5.9098e-41
0003a0 2c d2 00 80 6f 74 00 80 8f 80 00 80 d0 52 00 80
       -7.5395e-41 -4.1769e-41 -4.6118e-41 -2.9708e-41
0003b0 27 9b 01 80 ed 0a 00 00 e1 f6 00 00 48 89 00 80
       -1.47494e-40 3.92e-42 8.8563e-41 -4.9247e-41
0003c0 d4 db 01 00 40 22 01 00 d5 f7 00 00 70 d6 01 00
       1.70695e-40 1.04122e-40 8.8905e-41 1.68761e-40
0003d0 49 85 01 00 de bd 00 00 c3 fa 01 00 ed 85 01 00
       1.39649e-40 6.8112e-41 1.81792e-40 1.39879e-40
0003e0 dc 54 00 00 2c d1 00 80 e1 b7 00 80 28 ef 01 80
       3.0442e-41 -7.5037e-41 -6.5963e-41 -1.77629e-40
0003f0 5d a6 00 80 89 a7 01 80 16 b1 00 80 e7 54 01 00
       -5.968e-41 -1.51936e-40 -6.3526e-41 1.22293e-40

e_conv4.depth_conv.bias f4 [32]
000000 63 57 00 00 24 e5 00 80 1a 45 01 00 8c 5e 01 00
       3.1348e-41 -8.22e-41 1.16624e-40 1.25753e-40
000010 db 00 01 80 86 22 01 80 24 72 00 00 4f ab 00 00
       -9.2142e-41 -1.0422e-40 4.0946e-41 6.1454e-41
000020 52 77 00 80 9b ad 00 80 d3 10 00 00 80 4b 00 00
       -4.2804e-41 -6.2278e-41 6.035e-42 2.7084e-41
000030 d0 9e 01 80 93 3f 01 80 9b 02 01 00 85 5f 00 80
       -1.48807e-40 -1.14642e-40 9.277e-41 -3.4266e-41
000040 e4 9e 01 00 45 a6 00 00 b0 2e 01 80 98 fa 00 80
       1.48835e-40 5.9646e-41 -1.08584e-40 -8.9896e-41
000050 0a be 01 00 e1 37 00 80 b4 35 00 80 42 f9 01 00
       1.60009e-40 -2.0046e-41 -1.9265e-41 1.81252e-40
000060 d8 57 01 00 c5 79 00 00 b4 05 01 80 a9 06 01 80
       1.23348e-40 4.3683e-41 -9.3881e-41 -9.4225e-41
000070 62 da 00 00 f9 bb 00 00 a9 2b 01 80 78 e4 00 80
       7.8341e-41 6.7432e-41 -1.07498e-40 -8.1959e-41
